model_weights.pth (torch, 539494 bytes, 58 tensors)

encoder.conv1.weight f4 [8, 2, 3, 3]
00000000: 84fa 94bd 1324 673d 7360 0bbd cc63 943a
00000010: 9cbd 203d 78ff 55bc d823 02bd dac2 973d
00000020: 52f5 5ebb 079c f53c 2f9e 6dbc 6772 803d
00000030: 3ff1 883d 81be 15bc a832 6dbd c15f 0cbd
00000040: f949 453c 2b53 1bbd 27f5 3ebd 1240 4c3c
00000050: 2d92 cd3e 34c2 9fbd 083e c8bd 70a9 693e
00000060: fa41 ac3a e3a8 803e 92fe 973e fe7e 3ebe
00000070: fc6b fb3d add9 03be bf8d eb3b 314f 813e
00000080: 9fc7 5b3e 71aa cabe ec67 d93e 1c5a eabd
00000090: f041 1e3e 70b8 5c3d bb9e a83d 7ff4 893d
000000a0: 87b1 953d b088 ae3e 8b0e 023f 829a f73e
000000b0: 63a0 0f3f df51 aebc 2bac 08be 5dfd 89be
000000c0: 6d83 e03c f68d 50bc 5c59 d7bd 56aa acbc
000000d0: 7e16 b7bd 23d4 86be 2a88 f83e d15d 6d3e
000000e0: 7f91 4f3e 08db de3e 4e3a f23d a19c e43d
000000f0: d1d0 ad3e bfd9 493e 1ae7 b03d 12b4 12be
00000100: 8a35 ab3d 926d b03c 057e adbe c071 273e
00000110: fd64 813d 432f a23d 1c2c b53d ac07 0e3e
00000120: bbd8 f53c 202b 7bbc 389f d53c 244d 243f
00000130: 68ba 9d3e 417e 9d3d b3b6 b93e 56b7 9a3c
00000140: 474e 3cbe 9864 dfbd 8df1 8fbd 6880 b33d
00000150: 81d1 1abe 95d8 99bd e0ed 82be 2c9f 46be
00000160: 6e1b b1be 4d7b 3b3d 04fb 97bd a76f f4ba
00000170: 1014 44bd 851c 23bd b247 e73c ae6b abbc
00000180: 1d3e 8cbd 107c 98bd afb3 28bc 3d42 4bbd
00000190: 59ba 303b 8b6a b8bc 1cec 663d d5d5 67bc
000001a0: 49fa a8bb 1222 683d ccf2 01bd d1e8 bebc
000001b0: 6a8f 3f3d 7218 40be b4d1 fd3c cf0f e2bd
000001c0: b090 84be f024 a5be 45d2 98be 437e 02bf
000001d0: 5f24 c8be 96a9 283c c2be 3dbe 5176 03be
000001e0: 7fe6 863d 68d9 ec3d a5b7 263e 16fe f2bd
000001f0: c9aa 63be 678c 8cbd 7331 ccbd 0f65 013e
00000200: a544 8abd 0a3c 52be b304 053e 2c70 5dbe
00000210: 597e 5fbe d186 9c3e 4a3a a1be 4ed0 a1be
00000220: f436 7f3e f189 c7be 72e5 89be a4d1 e83d
00000230: 9d10 c1be 8987 4abe 6e69 ab3e 5294 56be
-0.072743446 0.056430887 -0.034027528 0.0011321246 0.039243326 -0.013061397 -0.031772465 0.07410212
-0.0034020734 0.029981626 -0.014503046 0.062718205 0.06686639 -0.009139658 -0.057909638 -0.034271006
0.012041562 -0.037921112 -0.046620514 0.012466447 0.40150586 -0.07800713 -0.097774565 0.22818542
0.0013142221 0.2512885 0.2968641 -0.18603131 0.12276456 -0.12876005 0.0071885283 0.2525573
0.21462868 -0.3958316 0.424621 -0.11442968 0.1545484 0.05388683 0.082334004 0.06736087
0.07309251 0.3408866 0.5080344 0.48360068 0.56104106 -0.021279274 -0.13346927 -0.26951113
0.027406419 -0.012729159 -0.10515091 -0.021077316 -0.08939837 -0.26333722 0.48541385 0.2318032
0.20270346 0.43526483 0.11827527 0.11162687 0.33948377 0.1971197 0.08637829 -0.14326504
0.08359821 0.021536622 -0.33885208 0.16351986 0.0631809 0.07919171 0.08846304 0.13870114
0.030010572 -0.015330106 0.026076898 0.6418021 0.3080628 0.07690097 0.362722 0.01888625
-0.18389235 -0.109078586 -0.07028494 0.08764726 -0.15118982 -0.07512013 -0.2557211 -0.19396657
-0.3459124 0.045771886 -0.07420924 -0.0018648998 -0.047870696 -0.03982212 0.02823243 -0.02092537
-0.06847785 -0.07445538 -0.010296746 -0.049623717 0.002696654 -0.022511741 0.056377515 -0.014150103
-0.0051567894 0.056673117 -0.03172569 -0.023304375 0.04676763 -0.18759325 0.030983783 -0.110381715
-0.25891638 -0.32254744 -0.29847923 -0.5097391 -0.3909025 0.010294339 -0.185298 -0.12838103
0.065869324 0.115649045 0.16280992 -0.11864869 -0.22233118 -0.06862717 -0.09970369 0.12636207
-0.06751374 -0.20530716 0.12990074 -0.21624821 -0.21825542 0.30571607 -0.31489784 -0.31604236
0.24923307 -0.38972428 -0.26932865 0.11368111 -0.37707987 -0.19778265 0.33478874 -0.20955017

encoder.conv1.bias f4 [8]
00000000: 2f16 3abd be90 903d fd2f d83d 9995 413d
00000010: 5526 e13d b4e1 93bd 8e91 6a3e 270c e23d
-0.045431312 0.070588574 0.10556028 0.047261808 0.109936394 -0.07220784 0.22907087 0.11037474

encoder.conv2.weight f4 [16, 8, 3, 3]
00000000: e24e a2bb 526c 70bd a6d7 28be e23a 3c3b
00000010: b937 f6bc 76d4 adbd bcec 0f3e 4f72 da3d
00000020: dffa ff3c 6190 903d 9c54 d4bd 40d4 263c
00000030: b1f1 1c3c 70c2 10be 69da ea3c 4910 a23b
00000040: b50c 813d c24f fb3c ef0a c63d 2a15 27bd
00000050: 32c0 303d 5a28 923e 7128 87be 53aa b33d
00000060: 431a ce3d c691 af3d eb3e 79bc 4dfa 77bb
00000070: 8f27 e43b 8b46 8bbd b40c 093e f2a9 d7bd
00000080: bab7 68bd fc31 23bd 0bd0 e5bd f3e5 abbc
00000090: 396e 503e 8abd a03c 352c 50bd 4a41 e13e
000000a0: ca13 30bd 70bb 90bd 3d71 803e 4007 3fbd
000000b0: 4212 92bd a98b fd3a 4f87 d63c 92db 663d
000000c0: dffa 6f3c 0d23 fe39 1b1b 543d b0d1 d7bd
000000d0: ef1a d3bd 58eb 03bc 1a4a a33d 2e19 153e
000000e0: 53ea 55bc b3a0 3abd 4ada 9f3e aadc a2bc
000000f0: 8b3a a33d 1711 db3c 7d4e 4d3c 25fa 44bd
00000100: 4ef6 1fbb b071 a9bd 9dbb a73d 4e2b 1e3e
00000110: ecd5 e93a 7619 4f3e af07 513c fc4b eabb
00000120: 96f9 bd3d f07c 4a3d 6c66 3a3d a2a6 65bd
00000130: 0989 5ebc 1f56 50bd 35df 303d 540c 773d
00000140: 5b87 5c3d b995 2dbb 25ad aabc 82e2 a6bc
00000150: 19f9 c23c b883 7cbd e71f ddbd 7e5a adbc
00000160: 346e 77be 9b01 56be 4f1b 063c 3052 cc3c
00000170: c426 a7bc 3111 69bd 2dab 843e c162 48bd
00000180: 2c73 e6bd cb1e 013f 9024 97be a849 16bd
00000190: 84c1 e9bc 3ec9 a63b 8d16 003b ef13 b73c
000001a0: b0da 3d3c 2e93 e73b 6b16 c8bd ae15 063e
000001b0: c384 05be a6ec bebd bece 36bd 1819 823d
000001c0: a5ae a63d acfb 3bbc 5da3 9c3c 72dd 5e3e
000001d0: a881 403e 6629 cdbc 8932 ffbb 03dc 1cbd
000001e0: 9682 763c dcec 303c 217f 873d f5b3 f3bc
000001f0: a727 49bd 7410 00bd b506 433e 5ded 413e
00000200: 8209 863d 17b7 e23d 604c 3b3d 56cf f63d
00000210: 4c43 363b bed2 e2be f6ee 333e dadf 273e
00000220: cf9a 813e 072a 993d 2621 f23d e772 173e
00000230: 8513 4a3d ff2a 61be 4de3 5c3d ed54 cbbb
00000240: 46e3 9cbb 38cb 52bc 3bf9 8f3c 4f3f 06bd
00000250: 1334 84bb 2504 50bc 3a9f 10be 75d3 25be
00000260: 3a07 23be b2c1 e7bc eae4 4f3e 915a 553e
00000270: 721d c53a 68f0 aebd 8f20 033e 5e82 6cbd
00000280: ef52 d536 6122 a93d b64d 0b3e 0bf3 953d
00000290: 0dae 2d3e 84b7 65bd 98e2 2cbd 8a32 593e
000002a0: 972b c1bd a401 173e 6d3b 153d bb9b 8f3e
000002b0: 09ca f7bd 098b 293e 6d75 08be 9df4 81be
000002c0: 011d 2abe 0fdb d9bd 4fd1 89bc 453e 5cbe
000002d0: 108b 8b3d 10e3 ae3d 6c3e 1bbd fd78 68bc
000002e0: 8e45 94bb c03c 8b3d a88d 41ba 2a55 37bd
000002f0: 9fe2 373d f82e cabc d6c8 dfbc 4ac9 0f3c
00000300: 8f2a 1d3d ade9 b03c 7d2f f1bc 02f8 943d
00000310: 63a5 a73d 6b0f da3d 18c2 c3bd 16ee e5bd
00000320: 36f0 8b3d af4c 713e 3037 783d d052 8dbe
00000330: e22e 093e 3bb1 113e 9ec9 de3d ce56 16be
00000340: ae9b b2bd 4310 173e 21d6 933d a7d5 2a3d
00000350: 6b33 b33d 9d93 91bd 5052 d93d a86e 2d3e
00000360: 00f8 c7bd dfd6 18bd 6fae 4fbd 94a6 0cbe
00000370: c7a5 febd 4c5c e1bd 40ff 1bbe 8128 0cbe
00000380: 702d d7bd e54a cf3d c619 13bc 1aff dcbd
00000390: 4fa3 5f3e efab 3f3e 7da1 d3be 9465 253e
000003a0: 6edd 553e 04ae ccbe 26f4 a33d eb87 9a3d
000003b0: 17e2 3cbc 252a 7cbe 3d2d 463e ad5c 07be
000003c0: 51d3 83be c4c8 b53d a23b 74be 0ffa 25be
000003d0: 06c6 ba3c 85c2 c8bd 4e35 08bd eb6d 0f3e
000003e0: 7ee0 26be e854 4bbd e93b b83d 8a72 8ebd
000003f0: b410 93bd f3fd 92bd 9f04 93bc 0110 a23c
-0.004953251 -0.058697052 -0.16488513 0.002872162 -0.030055868 -0.08487789 0.14055151 0.10666334
0.031247554 0.07058788 -0.103677005 0.01018244 0.009579108 -0.14136672 0.0286686 0.004945789
0.06301252 0.03067768 0.09670054 -0.040791668 0.04315204 0.2854641 -0.26398042 0.08772721
0.10063603 0.08572726 -0.015212755 -0.00378384 0.0069627236 -0.068005644 0.13383752 -0.10530461
-0.05681584 -0.03984259 -0.11221322 -0.020983672 0.20354547 0.01962163 -0.05082341 0.43995124
-0.042987622 -0.07067001 0.25086394 -0.046637774 -0.07132389 0.001934399 0.026187567 0.056361742
0.014647215 0.0004847277 0.051783662 -0.105380416 -0.103078716 -0.008051716 0.07973118 0.14560387
-0.0130563555 -0.04556341 0.3122123 -0.019880611 0.079701506 0.026741548 0.01253092 -0.04809012
-0.0024408284 -0.08273637 0.08190081 0.15446207 0.0017840243 0.20224556 0.01275818 -0.0071501713
0.0927612 0.049435556 0.045507833 -0.056067117 -0.013582476 -0.05086338 0.043181617 0.06031449
0.053840023 -0.0026486947 -0.020834515 -0.02037168 0.02380042 -0.061649054 -0.107971005 -0.021161314
-0.24163133 -0.2089905 0.008185222 0.024941534 -0.020404227 -0.05690116 0.25911847 -0.048922304
-0.11252436 0.5043761 -0.29520082 -0.036691338 -0.028534658 0.005089908 0.0019544691 0.022348372
0.011587784 0.0070671057 -0.09769901 0.13094208 -0.13038926 -0.09322481 -0.04463076 0.063524425
0.081387796 -0.0114735775 0.019120866 0.21764162 0.1879946 -0.025044154 -0.0077880067 -0.038295757
0.015045783 0.010798659 0.06616045 -0.029748896 -0.04911008 -0.03126569 0.19045527 0.18938203
0.06544782 0.11070078 0.045727134 0.12051265 0.0027811108 -0.4430141 0.17571625 0.16393986
0.25313422 0.07478719 0.11822729 0.14789926 0.04933502 -0.21989058 0.05392771 -0.0062051923
-0.0047878353 -0.012865834 0.017574897 -0.03277522 -0.004034528 -0.012696301 -0.1412324 -0.16193946
-0.15920725 -0.028290603 0.20302168 0.2083533 0.0015038683 -0.085419476 0.12805389 -0.057741515
6.3575494e-06 0.082585104 0.13603863 0.073217474 0.16960926 -0.056083217 -0.042208284 0.21210685
-0.09432142 0.1474672 0.036433626 0.280485 -0.12099082 0.16556944 -0.13326044 -0.25381938
-0.16612627 -0.10637485 -0.016823439 -0.21508129 0.068136334 0.085394025 -0.037901327 -0.014189002
-0.004524893 0.067986965 -0.0007383474 -0.044758953 0.044893857 -0.0246806 -0.027317446 0.008776018
0.038370665 0.0215958 -0.02944159 0.07273866 0.08185842 0.10647472 -0.09558505 -0.11227052
0.06832926 0.23564409 0.060599506 -0.27602243 0.1339679 0.14227764 0.10878299 -0.14681551
-0.087211 0.14752297 0.07218576 0.04170766 0.087500416 -0.07108233 0.10611403 0.16936743
-0.09764099 -0.037314292 -0.050703462 -0.1373542 -0.12433963 -0.11003932 -0.15234089 -0.13687326
-0.105067134 0.10121707 -0.008978313 -0.10790844 0.21839641 0.18717931 -0.41334143 0.1615203
0.2088525 -0.39976513 0.08005552 0.075454555 -0.011528513 -0.24625452 0.19353195 -0.13218947
-0.2574716 0.08876184 -0.23850873 -0.16208671 0.022799503 -0.09802727 -0.03325396 0.14006774
-0.16296574 -0.04964152 0.08995802 -0.0695544 -0.0718092 -0.07177343 -0.01794654 0.019783022

encoder.conv2.bias f4 [16]
00000000: c6c2 febb 9f9c b0bd 052f 33bd c2cb b5be
00000010: 03ed b83d 9003 91be 5933 04be abdb 82bd
00000020: 3d79 9dbe 09f9 363e b357 13be 9dce 95bc
00000030: 1e0a 08bd 8edd babe 3492 e5bd d75e 6c3d
-0.0077746836 -0.08623623 -0.043746013 -0.35507017 0.090295814 -0.2832303 -0.12910213 -0.063895546
-0.3075656 0.17868437 -0.14388923 -0.018286997 -0.033212774 -0.36497158 -0.11209527 0.057707634

encoder.conv3.weight f4 [32, 16, 3, 3]
00000000: 6ec4 b0bd 5147 063d 0c6e bf3d d3be 883c
00000010: b4d9 cbbd d573 15bd df24 243d f881 4b3d
00000020: 888d 303e 371c e7ba 7fe5 4d3d 65ce 063e
00000030: 7ce1 01be df9b ccbc 7144 433e bf6d 9d3c
00000040: eef2 a53e 60aa 9c3d b736 c2bc 7dc1 b7bd
00000050: 1982 e83d 1caf d93d 79ba 143e 5294 f33a
00000060: 36f0 703a 3c66 3d3d 0235 113e 6d91 60bd
00000070: fc8d 9cbd a533 f63c c246 1dbc 7136 26bd
00000080: aa07 00bd af36 94bd 203d 1bbd 309a b43d
00000090: 1681 13bd f8cc 093e bb43 283e aae9 84bd
000000a0: e1aa d3bd 531d fbbd eca5 1b3e 1732 b1ba
000000b0: c38b a33d 8966 253d 2da0 ce3d 4aa3 3cbd
000000c0: 3fb1 1cbd ee7e 54bb 821c 053e 9b1e 53bb
000000d0: 032a 823d 419a b63c 2de7 c0bd 4821 9cbd
000000e0: 721d 79be 2b34 8dbd ad6d 12bd c9c1 983c
000000f0: 8a64 6a3d d5cd 32bd 9fc5 f1b9 8189 d8bc
00000100: 8cb1 8ebd e9a7 9b3b 8c0b 47bc 90ba 2f3d
00000110: c2a7 203b 3507 693e 042d a03d 66dc 9fbd
00000120: 8dd8 25be 4132 29be f017 85bd 9b1d f0bc
00000130: a8a6 8e3d e613 10bc 6d05 433e c9e3 0cbd
00000140: 392e 053e a64e 7b3c 3cc7 943d d6dd 6dbd
00000150: 979a bebc 5e85 d33c 43c3 76bd 658f 4abc
00000160: e4e5 4d3b f37e 11be deaa 8eb9 697b 423e
00000170: 9443 8ebd 4712 d83d 6822 503d 9899 07be
00000180: a9c0 1a3e 3218 4a3c fd31 8ebd 4cb8 87bc
00000190: 2c44 e6bb 1853 fa3d e81d 533d ac96 043d
000001a0: 2e57 853d f465 5f3c e2ea 4dbd 3635 713d
000001b0: 8298 f2bd fde5 a93b f24c c0bc c5a0 42bd
000001c0: 58e6 c7bb 3a53 1d3d 8009 a5bc e1e9 603d
000001d0: 68ed fe3d 0ec1 d4bc afbe 68be ab30 dcbd
000001e0: eff0 4f3a 93a3 1f3e 337e 373e 2e40 c23d
000001f0: 01bf c23c 39c4 84bd c2f6 edbd 5d2c 99bd
00000200: c827 163c bf09 1cbd 4310 053c 2bfb 703d
00000210: 71a5 99bd 9f97 2c3e 443d 43be c34d 37bc
00000220: 3195 093d b214 49bd 2dcc 3c3e b298 18be
00000230: 13c6 02be 8060 de3c 7b10 26bd 36ec 59bc
00000240: 8876 9f3d c903 803b f1b4 00bd fd75 f1bb
00000250: 0143 cd3d 6ad1 75bd f3d8 143d 2667 4abd
00000260: fda6 e93d e49a f2bd 8c6c db3d 3390 703d
00000270: 2e5d 163e a2b7 9bbd e858 443d 0f69 b03c
00000280: cfd9 1dbc 62dc a93d fe10 4b3d 67b9 493c
00000290: 3986 e13c 3a1e 033e b5a0 94bc 078b 3d3c
000002a0: 02c2 04bc a349 003e 3196 8abd d67d 8abd
000002b0: 9d69 19bc 535c edbc ec83 093d 25e8 3cbc
000002c0: 0cfc 96bc f253 493d b864 23bc f61d 703c
000002d0: 920c 5dbd 6843 023d 6bd8 633c 13fa 113e
000002e0: 6354 babc ccb8 0b3d cdf5 053d b9ce 0ebd
000002f0: 703a a13d c9c3 39bd 2f2c 3f3c c50e d93d
00000300: ab66 623c 04ae a0bd dab8 1ebe ba04 9c3c
00000310: 03f1 da3d 97c5 893d 45cd e8bc 3ecf 2d3d
00000320: f2ac b9bd c8b7 133d 0bc1 033e c983 b1bd
00000330: 5ca9 a93c 7430 f2bd ccd4 b03d 36be ee3b
00000340: 6e73 83bd 3128 6cbc ca05 06bd 4d01 523d
00000350: 9b27 97bd 9020 c83b 6921 7ebd a67a be3c
00000360: eb7d 813d 9d11 8dbd 4795 593d 830b 8ebc
00000370: 63b8 313c 7779 f43c 67b1 8dbc 147f 153e
00000380: a5b7 a4bc 472c 97bc af77 143c 4256 53bc
00000390: 871f 82bd a71d 78bd 7c80 5ebd 3560 013e
000003a0: 5ea7 0bbd 4baf bebd 651b 4fbd d075 40be
000003b0: d05d 173d cc63 f7bd 7d1c 643e faa3 483e
000003c0: 32a3 413c f947 a7bd 6460 46be f97d 74bd
000003d0: 7972 923d 4a11 46bd 4ab5 a13d 7ad4 5c3c
000003e0: edd7 753d 0992 8d3c f6af 56be a2da 5cbd
000003f0: b91b e7bc 5e12 02bd 8922 2fbd 8357 313c
-0.08631216 0.032782856 0.09347162 0.016692555 -0.09953633 -0.03648742 0.040074226 0.049684495
0.1724149 -0.001763231 0.050267693 0.13164671 -0.12683672 -0.024976669 0.19069077 0.01921737
0.32411903 0.07649684 -0.02370773 -0.08972452 0.11352939 0.106291026 0.14524259 0.0018583632
0.00091910677 0.046240076 0.14180377 -0.05482619 -0.07644269 0.030053923 -0.0095993895 -0.040579263
-0.03125731 -0.072369926 -0.03790009 0.088184714 -0.036011778 0.13457096 0.16432087 -0.064898804
-0.10335327 -0.122614525 0.15200013 -0.0013518956 0.07985642 0.04038099 0.10089145 -0.046054162
-0.038254973 -0.0032424289 0.12999156 -0.0032214287 0.06355669 0.02229035 -0.09419093 -0.076235354
-0.24327639 -0.06894716 -0.035749126 0.018647091 0.057224788 -0.043653328 -0.0004611434 -0.026432754
-0.06967458 0.004750241 -0.012148749 0.04290253 0.0024514054 0.22756656 0.07821086 -0.078057095
-0.16195889 -0.16523077 -0.06498706 -0.029310992 0.06965381 -0.008793807 0.19045039 -0.03439692
0.13005914 0.0153385755 0.072645634 -0.058072887 -0.023267074 0.02582043 -0.06024481 -0.0123632895
0.0031417543 -0.14208584 -0.00027211657 0.1899239 -0.06946483 0.10550361 0.050814062 -0.13242185
0.15112557 0.01233487 -0.06943128 -0.016567372 -0.0070271697 0.1222288 0.051542193 0.032370254
0.06510769 0.013635147 -0.05027283 0.058888637 -0.11845495 0.0051848874 -0.02347419 -0.047516603
-0.006100457 0.03840945 -0.020146132 0.054910544 0.124476254 -0.025970962 -0.2272899 -0.1075147
0.0007932325 0.15589742 0.17919235 0.094848976 0.023772718 -0.06482739 -0.11619331 -0.07479165
0.009164758 -0.038095232 0.008121553 0.058833282 -0.075022586 0.16854714 -0.1906634 -0.011187973
0.033589546 -0.049092002 0.18437262 -0.14901999 -0.12770872 0.027145624 -0.04054306 -0.013300946
0.0778628 0.003906701 -0.03142256 -0.0073688016 0.100225456 -0.060014166 0.03633971 -0.049414776
0.114088036 -0.11845949 0.10714063 0.05873127 0.14683983 -0.076033846 0.04793635 0.02153447
-0.009634449 0.08293988 0.049576752 0.01231227 0.027529823 0.128045 -0.018143037 0.011568791
-0.008102896 0.1252809 -0.06766928 -0.067622826 -0.009363559 -0.028974688 0.033573076 -0.011529957
-0.018430732 0.049152322 -0.009972744 0.014655581 -0.053967066 0.031802565 0.0139065785 0.14255552
-0.022745317 0.034111783 0.032705117 -0.034865115 0.07872474 -0.04535273 0.011668249 0.1059852
0.013818423 -0.07845691 -0.15500203 0.019045223 0.106905006 0.067271404 -0.028418193 0.04243397
-0.0906619 0.03606394 0.12866609 -0.08667714 0.02071064 -0.11825648 0.08634338 0.0072858585
-0.06418501 -0.014413879 -0.032720365 0.05127077 -0.07380601 0.0061073974 -0.06204358 0.023251843
0.06322845 -0.06888125 0.053120878 -0.017339474 0.010847184 0.029843075 -0.017296506 0.14599258
-0.0201071 -0.01845373 0.009061738 -0.012898983 -0.063536696 -0.060575154 -0.05432175 0.12634356
-0.03409516 -0.09310778 -0.050563235 -0.18794942 0.0369547 -0.120795816 0.22276492 0.19593802
0.011818694 -0.081680246 -0.19372708 -0.05969045 0.0715074 -0.048356332 0.07895906 0.013478393
0.060020376 0.017281549 -0.20965561 -0.053919442 -0.028211461 -0.031755798 -0.042757545 0.010824087

encoder.conv3.bias f4 [32]
00000000: e0c6 afbd 4cec 33be a872 54be 37ba 1ebe
00000010: 9ce0 d6bd 63e1 02be 7927 88bd 1966 f4bd
00000020: 28e6 75bc 9ddd 4ebe 8036 893c eff8 8abe
00000030: d030 91bb 82e6 593f 3ef8 14be fe1d 5ebe
00000040: 512c 32bd 7131 04be 9d5b d23e 66bd 3fbe
00000050: daa6 a6bd e67d 1abe a1b9 b3bd cdb8 85be
00000060: 6716 37be 9131 febd 8d17 f0bd d795 13bd
00000070: f959 75bd 80b7 03be fb88 29be 2c2c 20be
-0.08582854 -0.17570609 -0.20746863 -0.15500723 -0.104920596 -0.1278129 -0.06648154 -0.11933536
-0.015008487 -0.20201726 0.01674962 -0.27143046 -0.0044308677 0.8511735 -0.14547822 -0.21691129
-0.043499295 -0.12909485 0.4108552 -0.18724594 -0.08137293 -0.15087089 -0.0877564 -0.26117554
-0.1787964 -0.12411798 -0.11723242 -0.03603157 -0.059900258 -0.12862968 -0.1655616 -0.1564185

encoder.conv4.weight f4 [32, 32, 3, 3]
00000000: 7dba 33be 8ac0 19be 179b 92bd 4e28 f7bc
00000010: 7931 61bd 5eef d33c cc99 c53c 2dfd a6bc
00000020: 0fe8 d8bd 66b3 933d 6e5d be3c 3a77 a13d
00000030: a9dc 27bd c254 17be 8b3c c8bd 1826 ed3c
00000040: 964d 0b3d 5913 883d 4664 83bd 14b8 03bd
00000050: 6b53 ca3d a9ea c33d 6a51 533d 9f85 2fbc
00000060: f02f 37bd a0ad 89bd 8b74 56bd ac7e 3a3d
00000070: 5de0 db3d 582f 2cbc a22e 5abd f505 a7bd
00000080: ef67 dbbd 4d0b e03d 5190 09bc 1cf1 833d
00000090: 6d33 f13b d3ce e13c 944b c4bc 9107 993d
000000a0: ade5 c13d 449b 543b bbf1 643d 225b 9bbd
000000b0: 72b4 73bc 8dbe a33c 1bf1 903d 69cd 173e
000000c0: 14ee 50be 8e68 e6be b45e 90be 5fbd 3c3d
000000d0: d9ec 693e dad2 cc3e 7534 dcbc e358 e1bd
000000e0: 4fa0 4b3c e196 ddb9 4840 163e a6b7 4e3d
000000f0: 57a1 acbd d43d ca3c bddc f4bd c117 89bd
00000100: c015 0abe 0099 c7bc 3c32 46bd fe97 0b3d
00000110: d5b9 963d 62da 113e 249d 8b3c 68b6 7f3e
00000120: aa16 4a3d c04a cf3b 486a 74bd 0826 823b
00000130: f0e5 9fbd 6568 93bd 055d 8a3a 0a91 fabc
00000140: 11d1 e63d 2578 1fbd 70dc 253e f51f 9c3d
00000150: 2fa0 4b3c 4c88 a5bd b9ef 66be cbcd 8fbc
00000160: 2054 f13c d03b 65bd dcc2 9f3c e7e6 233d
00000170: e4a8 5bbc ae2a 37bd 87a3 723d 945e 243c
00000180: be09 953d a4b0 87bd 4e59 a2bd 87c4 523d
00000190: 3d86 10be 5bfc 8ebc 4e78 453d 4d41 853d
000001a0: 163d d93c ee02 15be e246 79bc ad01 6e3b
000001b0: 5e52 ddbc 260d 36bc 157f d0bd 734b 3bbe
000001c0: 1747 14be 89f0 f5bc 1209 babd b6ee 56bd
000001d0: e559 59bd 3638 883b 67af b93b 7dab 053e
000001e0: d0ad 04be 5fb8 2fbd 13b4 083e 6fd5 183e
000001f0: 3c07 0d3e 3f9d 293d f936 a1bd 1fbc 473d
00000200: d863 f73d 7764 c13d a59b 273d 4acb 7a39
00000210: 4509 443c 8013 75bb 58e1 34be 32f0 6a3d
00000220: 9298 1d3d dd0f 1c3c 6c10 4d3d a211 543d
00000230: 0b06 98bb 528a 01bd 7128 cdbd 678a 74bd
00000240: d686 3dbd 7cb9 5ebe 4ed4 83bd 3e87 533d
00000250: f814 1e3e 9d82 853d d62a 463d a52c b7bd
00000260: 254d 06be d3ce 5a3d 0627 823d acc2 09bd
00000270: 6d0d 7d3c 0bf0 97bd 7929 bb3d 29db cebd
00000280: 9dbc 90bc 6d28 7b3d 0a79 4c3d 8d12 b93d
00000290: da3e f9bd c78e dd3b b088 6a3e b683 5f3e
000002a0: 6dc7 b83c 4ec6 50bd 22f8 6dbe bee2 8dbd
000002b0: 844b b93c 2757 8f3d 983b aa3c 151c 23be
000002c0: 6896 02be b332 6a3d 3adf 6dbc deef 0e3e
000002d0: b36d a03d 7065 15be 6d7f f63c eaef e7bd
000002e0: 1cb7 24bc e48f 3cbd 82fc aebd 61e4 123e
000002f0: 106b e7bd 7ae4 56be 6c7a bcbd 7554 9e3c
00000300: 8aec 94bb 1a85 783e ed61 9ebc 8fac 81bc
00000310: b6a7 e23b 4604 bebd 9a86 67bd e302 ccbd
00000320: 2dee f43d c68e 49bc 3970 46be 4110 8d3d
00000330: dfcf b83d 0113 98bb e4ca c93d 0695 313d
00000340: 82ea 8d3c 3289 e9bd 5244 293d 14ce 96bc
00000350: 0074 cfbc a4d3 2fbd 14a0 5abb b844 3e3d
00000360: dee1 ae3c 45b8 b03d b56d ca3c fc2b 76bc
00000370: 590f 6b3d 61f1 f5bc ff4b 7abd 8943 0cbc
00000380: dab5 e3bb b637 033e 4052 f8bd b590 d6bd
00000390: f4e9 2aba c7c2 263d ecda 903e 4837 0bbc
000003a0: e1cc d53c aa3d 77bc f1d0 2b3e 5281 3e3e
000003b0: acdb 3bbc 3a90 53bd e84e f73d 4f67 0ebd
000003c0: 13d1 4abd fb5b 613b 006b 23be 20d7 13bb
000003d0: 97be 353e 689d 5fbe e3df 953d bdda d43d
000003e0: a7ec 213e 1ae3 9e3c ef96 02bd 112e b6bd
000003f0: 68c6 26bc 2f6b f83c 9535 c0bc 8588 a43d
-0.17551608 -0.15014854 -0.07158487 -0.030170586 -0.05497882 0.025870975 0.024121188 -0.020384395
-0.10591137 0.07211952 0.02323791 0.07884069 -0.040981922 -0.14778426 -0.09777173 0.028948829
0.03400954 0.06644315 -0.0641561 -0.032157972 0.09879192 0.09566242 0.051591314 -0.01071301
-0.04472345 -0.067225695 -0.052357238 0.04553096 0.10736153 -0.0105093345 -0.05326713 -0.08155433
-0.10713183 0.109396555 -0.008396224 0.06442472 0.0073608668 0.027564442 -0.02396182 0.07472146
0.09467635 0.0032441178 0.055894595 -0.075857416 -0.0148745645 0.019988323 0.07077237 0.14824452
-0.2040332 -0.45001644 -0.28197253 0.046079036 0.22844256 0.40004617 -0.026880482 -0.11003282
0.012428357 -0.00042264818 0.14672959 0.05046811 -0.08429211 0.024687685 -0.11956165 -0.06693984
-0.1348486 -0.024364948 -0.04838775 0.034080498 0.073596634 0.14243463 0.017042704 0.24971926
0.04933802 0.0063260496 -0.05967167 0.003971819 -0.07807529 -0.07197646 0.0010556286 -0.030586738
0.11270345 -0.038932938 0.16197371 0.07623283 0.012428327 -0.08082637 -0.22552384 -0.017554184
0.02945906 -0.055965245 0.019502096 0.040015128 -0.013406966 -0.044718437 0.059237983 0.010032315
0.07277249 -0.066254884 -0.0792719 0.051456954 -0.14113708 -0.017454317 0.048210435 0.06506596
0.026518386 -0.14551899 -0.015214654 0.0036316917 -0.027016815 -0.011111533 -0.10180489 -0.182905
-0.14480244 -0.030021923 -0.09083761 -0.052473746 -0.053064246 0.0041570915 0.0056666615 0.13053699
-0.12956929 -0.04290044 0.13349943 0.14925168 0.13772291 0.041409727 -0.07871813 0.04876339
0.120795906 0.0944299 0.04091992 0.00023917589 0.011965101 -0.0037395656 -0.17664087 0.057357974
0.03847558 0.0095252665 0.05006449 0.05177463 -0.0046393923 -0.031626053 -0.10017479 -0.059702303
-0.046271168 -0.21750444 -0.06436978 0.05164265 0.15437686 0.06519053 0.048380695 -0.08944062
-0.13115366 0.0534199 0.063550994 -0.03363292 0.0154450955 -0.074188314 0.0913877 -0.10100395
-0.017668063 0.06131785 0.04992012 0.090367414 -0.12170191 0.006761405 0.22903705 0.21827587
0.022556031 -0.050970368 -0.23239186 -0.06928013 0.022619016 0.06999045 0.02078037 -0.15928681
-0.12752688 0.057177257 -0.014518553 0.1395869 0.078334235 -0.14589477 0.030090058 -0.11325057
-0.010053422 -0.046035662 -0.08544256 0.14344932 -0.112997174 -0.20985594 -0.092030376 0.019327382
-0.004544799 0.24269524 -0.019333804 -0.015829353 0.0069169654 -0.09278159 -0.05652485 -0.09961488
0.11959491 -0.012302106 -0.19378747 0.06887866 0.09024023 -0.0046409373 0.098531514 0.04335501
0.017323736 -0.11403121 0.04132492 -0.018408813 -0.025323868 -0.042926446 -0.0033359574 0.046452254
0.021347936 0.086288966 0.024710516 -0.015025135 0.057387684 -0.030022325 -0.06110763 -0.0085610235
-0.0069491686 0.12814221 -0.12125063 -0.104768194 -0.0006519847 0.040713098 0.28292024 -0.008497067
0.02609867 -0.015090385 0.16778924 0.1860402 -0.011465948 -0.051651217 0.12075597 -0.03476649
-0.049515795 0.00343871 -0.15958786 -0.0022558644 0.17748486 -0.2183739 0.07318094 0.103932835
0.15812932 0.0193954 -0.031882223 -0.08895505 -0.01017914 0.030324547 -0.02346305 0.080338515

encoder.conv4.bias f4 [32]
00000000: b191 f23d e388 063e 3668 813d 35eb 113d
00000010: e9dd 56bd 569d 5bbd ef60 1d3d f831 bcbc
00000020: 4901 3fbd e6af 063d 39cc 43bd 6180 1e3e
00000030: ec4f 373e e6fa 5e3d 196d 71bc 1674 623c
00000040: 00a7 ddbd ab0c 003d 0223 7339 e5ae 9b3d
00000050: da08 eb3c 1f94 5d3d 3afa a63c 4ba7 c33d
00000060: b036 4dbb f76b b3bd e43f 4e3d 4dd2 c73c
00000070: baed 45bb 7a82 b4bc 2536 b8bd 7008 98bd
0.11844195 0.13138156 0.06318705 0.0356247 -0.052457724 -0.053616844 0.03842252 -0.022973046
-0.046632085 0.032882594 -0.047802184 0.1547866 0.17901582 0.054438494 -0.014735484 0.013821622
-0.10822868 0.03126208 0.00023187327 0.07601718 0.028690744 0.054096337 0.02038299 0.09553393
-0.0031313114 -0.08760827 0.0503539 0.024392271 -0.003020151 -0.022034872 -0.08994702 -0.07423484

encoder.bn1.weight f4 [8]
00000000: 4d47 a23e 16f4 dc3e db21 d63e 83d1 903e
00000010: 2232 e33e 4d47 a23e cdb8 c83e 358d 503f
0.31695023 0.43154973 0.41822705 0.28284845 0.44374186 0.31695023 0.39203492 0.81465465

encoder.bn1.bias f4 [8]
00000000: cd70 1f3f 6d55 c8bd 17c4 49be 3ae9 dcbc
00000010: 1272 1abe c4fb a7be 8063 a93c c69d 8c3d
0.62281495 -0.09781919 -0.19703709 -0.02696668 -0.15082577 -0.3280927 0.020677328 0.068660304

encoder.bn1.running_mean f4 [8]
00000000: 0000 0000 5391 943d 7ca9 c83d a733 493d
00000010: 6dc2 cd3d 0000 0000 fadb 663e 580e ce3d
0.0 0.07254281 0.097979516 0.049121525 0.100468494 0.0 0.22544852 0.100613296

encoder.bn1.running_var f4 [8]
00000000: 0400 0000 f583 df39 6b2c da39 c833 5639
00000010: 18ce 023a 0400 0000 03a8 3839 e143 673a
6e-45 0.0004263219 0.00041613294 0.0002042792 0.0004989817 6e-45 0.00017610197 0.00088220654

encoder.bn2.weight f4 [16]
00000000: 5cc2 913e 1fa2 ab3e d7ab e23e c0d0 243e
00000010: f636 063f fca7 853e f758 c53e 8d1e a03e
00000020: e237 373e b17e 213f c018 be3e 6de7 493e
00000030: 77cf cf3e 95ab 563e 036c 493e d2d6 2e3f
0.28468597 0.33522126 0.44271728 0.16095257 0.52427614 0.26104724 0.38544437 0.31273308
0.17892411 0.6308394 0.37128258 0.19717188 0.4058797 0.20963891 0.1967011 0.6829654

encoder.bn2.bias f4 [16]
00000000: c3cc 55bd adae 87be 6fff 77be 294a 523e
00000010: bba0 d2be 06a1 55bd f1b2 a4be f3eb da3e
00000020: b9ed 92bd 9cd0 833e fc6c ccbe 8204 1abe
00000030: 0dd4 833e bd83 04be f1ea 753e 8593 f53e
-0.05219723 -0.26500455 -0.24218534 0.20536102 -0.41138253 -0.052155517 -0.3216777 0.4275814
-0.07174248 0.25745094 -0.39926898 -0.15040782 0.2574772 -0.12940879 0.24015404 0.4796411

encoder.bn2.running_mean f4 [16]
00000000: e51b 193e 5f41 aa3e 901c 413d 19be 933b
00000010: f568 273e c661 a63c baf1 bb3e 5a52 303d
00000020: 090e a23b 7170 003f e6db 063d 0f60 863c
00000030: 2294 cc3d 6da6 803b 70b2 a73b a474 673f
0.14952047 0.33253 0.04714638 0.0045087454 0.16348632 0.020310294 0.3670786 0.043047287
0.004945521 0.5017157 0.032924555 0.016403226 0.099891916 0.0039260895 0.005117707 0.90412354

encoder.bn2.running_var f4 [16]
00000000: 4b2d a83c a7cc 343d 7591 ec3c aa6a 923a
00000010: 63cd 123e b7db 463d 76f8 533d 8951 ed3c
00000020: 9f62 a23b e459 7b3d 8ddb a73d f2a7 e83b
00000030: 3ea3 163c 6cb9 913b d76d 993b a2b3 ff3d
0.02052941 0.044140484 0.028877953 0.0011170704 0.14336161 0.04854938 0.051750623 0.028969543
0.004955604 0.061365023 0.08196173 0.0071000988 0.009194193 0.004447153 0.0046822834 0.12485434

encoder.bn3.weight f4 [32]
00000000: 5e4e 0b3f 7346 cf3e aabd c33e b129 ed3e
00000010: 2ecf cd3e 83b3 4e3f 2ae4 163f f446 cf3e
00000020: 0b72 bd3e c7e8 c83e 10d0 eb3e b4aa e43e
00000030: 0af0 b13e 8544 4f3f a9a5 0d3f ad58 ce3e
00000040: 5986 623f e1d7 133f 7807 683f 06d7 e03e
00000050: 57a5 e53e 7af4 e83e 6b83 123f 62d0 f13e
00000060: 5be6 b63e 7ef6 e43e 883c 433f 50dd 323f
00000070: a4a6 c53e b51c c53e a35b d43e ba02 323f
0.54416454 0.40483436 0.3823064 0.4632087 0.40197128 0.80742663 0.589419 0.4048382
0.3700107 0.39240095 0.46057177 0.44661486 0.34753448 0.8096393 0.553309 0.4030203
0.8848625 0.5775128 0.90636396 0.4391405 0.44852707 0.4549902 0.5723178 0.47229296
0.35722622 0.4471931 0.7626424 0.69868946 0.386037 0.38498464 0.41476163 0.6953541

encoder.bn3.bias f4 [32]
00000000: b01b 58bd 1c8f 2c3d 561e 09be cdd8 64bd
00000010: 56bc 933d 0117 c1bd 1423 b6bd a4ed e4bc
00000020: adb1 0bbe 4d66 863d b95c 54bc 2be8 38bc
00000030: 8778 0dbd 2881 29be 3cda 23be 89bd 68bd
00000040: f651 f9bd 5062 eabd 3000 5ebe ffaa f4bd
00000050: 1f2b dfbd 7d3f d7bd 3f5d 00be 5bb9 65bb
00000060: f02b febc 48ab 4fbd f9c3 a0bd 091f 2bbc
00000070: 13f1 1ebc 7eb0 173d fa20 c1bd 0bad c1bd
-0.05276078 0.042128667 -0.13390478 -0.05587082 0.072136566 -0.09428216 -0.08893409 -0.027945347
-0.13641997 0.06562481 -0.01296156 -0.011285822 -0.034538772 -0.16553175 -0.16001219 -0.05682138
-0.12173836 -0.11444533 -0.21679759 -0.119466774 -0.108968966 -0.10510156 -0.1253557 -0.0035053107
-0.03102681 -0.050700456 -0.07849879 -0.010444411 -0.009701031 0.03703355 -0.09430118 -0.094568335

encoder.bn3.running_mean f4 [32]
00000000: e1c6 583d 9f4b 923c 2a71 373c aa25 503c
00000010: e208 903c 4651 833d 470c e63c 5cab 893c
00000020: 0bc7 643c ce72 3b3c 0477 a03c 5b26 463c
00000030: cde5 ac3c 9c49 b13f 6866 9f3c 5e3c 1f3b
00000040: ac09 b43d e422 023d 0d84 d33e b928 e33c
00000050: de3c b63c 1343 ad3c 6d32 383d a036 8f3c
00000060: c59b 163c 5040 373c 32f4 773d efee 853d
00000070: 687f 303c 0107 063c 3f25 1e3c e791 343d
0.05292404 0.017858325 0.011196414 0.012704292 0.01758236 0.06411986 0.028082026 0.016805343
0.013963471 0.011440946 0.019588001 0.012094106 0.021105671 1.3850589 0.01945801 0.0024297456
0.08790907 0.031771556 0.41311684 0.027729379 0.02224582 0.021150148 0.044969965 0.017482102
0.009192412 0.011184767 0.060535617 0.065397136 0.0107725635 0.008180381 0.009652435 0.044084456

encoder.bn3.running_var f4 [32]
00000000: 2386 093e 508b 0b3d 394e ad3c 82d4 083d
00000010: 94b6 f93c 7b78 643e d4ee 973d 4ffc b13c
00000020: 4dbf bc3c 7dc9 f43c 0321 013d befe dd3c
00000030: ccfb 443d 3187 e33d 1522 733d 625b b13b
00000040: 2d61 cf3e 885d c63d 3216 e13e bc31 5e3d
00000050: 5037 943d 5ff1 683d 5419 de3d 3d5f f03c
00000060: 9a34 963c 3390 b73c ceeb 313e 5c92 2a3e
00000070: 3782 403c 557d 6d3c d439 b73c 6a07 0d3e
0.13430075 0.034068406 0.021155464 0.03340579 0.030482568 0.22311585 0.074186 0.021726755
0.023040438 0.029881233 0.031525623 0.02709901 0.048091695 0.1110977 0.059358675 0.005412505
0.40503827 0.096858084 0.43962246 0.05424665 0.072371125 0.056870814 0.10844675 0.029342288
0.01833563 0.022407627 0.17375109 0.16657394 0.011749796 0.0144952135 0.022366442 0.1377236

predictor.action_to_map.0.weight f4 [64, 2]
00000000: 14d2 233f 7173 87be 62eb a53e 18be 483f
00000010: 3e94 05bf 4f51 b33e 7f64 70be 90f5 063d
00000020: 3ea7 d7be 814d a13e a124 973e 202b 91be
00000030: 0205 9d3d 4c08 c83e 91ab f8bd 4f06 7fbc
00000040: d7d7 573e 71e8 ce3c 671e 523d 060e 6a3b
00000050: caf7 a6ba 4d4c fcbd 7138 ef3e 562b 2f3e
00000060: 5a72 3dbe 6cfa 10bf 5058 c4be 2183 9b3e
00000070: a9c0 90be b2b3 773e 6856 273f 8c32 9dbd
00000080: 5a99 103f 0a17 ebbe 0603 883e 397c fe3e
00000090: ef25 36be b986 353f 1137 18be 4ce1 8bbd
000000a0: 0f0d 7b3e 0077 5abe 424a 323e f113 4bbf
000000b0: 758a ff3d 25eb 12bd 2745 013e 12a7 9ebd
000000c0: b578 ccbe 96a8 55be fa4c d0be 47c3 94be
000000d0: aa69 fd3e bc02 053f 3aaf 2ebe 6cfc 2b3e
000000e0: 6da3 a73e a66a 1e3f d95e 053f 2e2e bb3e
000000f0: 4fdb f0be 1609 063f b407 00bf d37a 49bf
00000100: fd0c 1a3f 71fd bf3e 58b2 d7bd 69e2 2cbf
00000110: b52f 263f d6a9 dabc be29 0abf fe5d 0e3f
00000120: f6bc 533e b8e5 d1be a126 0fbf 8496 5c3d
00000130: 82cc 073f baa0 0bbe 7413 983d 79bd f1be
00000140: 3bce 26bf eefd f63d 763a 6cbc c751 1e3c
00000150: aa4f 79bd 30a8 423e cf88 ed3d b908 2d3f
00000160: 5025 a53e e4db ddbe cb00 173e 35ee a43c
00000170: 7ec5 6a3d c00e 45bf ffa0 2bbf 7675 0bbe
00000180: bd61 84be b590 27bf 44c6 62bf a31e bdbe
00000190: 0ec3 1c3e 2d23 ca3e 283c 30be ab7b 3abe
000001a0: 8aed 043f 897d 24bf c8f8 edbe 9ee2 fc3e
000001b0: 13c9 ddbe ad2d 1abf 34f8 783e c468 80be
000001c0: ed29 f6bd 3f6f bfbd b0a6 92be a83c 103f
000001d0: 9ee0 15bd d6f2 21bb 8118 0f3f 60fc 453e
000001e0: 6951 1d3e 3749 613e e432 993e 9fc6 313d
000001f0: b1c4 39bb dccf 4e3f 3470 d63d 5f82 ba3d
0.6399243 -0.26455262 0.32406145 0.7841506 -0.52179325 0.3502297 -0.23475836 0.03294903
-0.42119783 0.31504443 0.29520133 -0.28353214 0.07666971 0.3906883 -0.12142099 -0.015565469
0.2107843 0.025257321 0.051298525 0.0035713925 -0.0012738642 -0.12319241 0.4672275 0.17106375
-0.18500653 -0.56632113 -0.38348627 0.3037348 -0.28271988 0.24189642 0.6536622 -0.07675657
0.56483996 -0.45916015 0.26564807 0.4970415 -0.17787908 0.70908695 -0.14864756 -0.06830081
0.245167 -0.21334457 0.1741114 -0.79327303 0.124775805 -0.035868783 0.12624036 -0.0774671
-0.39935842 -0.20865092 -0.40683728 -0.29055235 0.49494678 0.519573 -0.17059031 0.1679551
0.3274187 0.6188148 0.5209785 0.3655867 -0.4704232 0.52357614 -0.50011754 -0.7870304
0.6017607 0.37498048 -0.10532063 -0.67532974 0.64916545 -0.026692312 -0.53969944 0.5561217
0.20677552 -0.40995574 -0.5591832 0.05385448 0.5304643 -0.13635531 0.074255854 -0.4721487
-0.6515843 0.12060152 -0.014418235 0.009663052 -0.06086699 0.19009471 0.1159836 0.67591435
0.3225503 -0.43331826 0.14746396 0.020133117 0.05731725 -0.7697563 -0.67042536 -0.13619027
-0.25855818 -0.6545518 -0.8858378 -0.36937436 0.15308782 0.39479962 -0.17210448 -0.18211238
0.51924956 -0.6425405 -0.46478868 0.49391645 -0.4331747 -0.60225946 0.24313432 -0.2507993
-0.120197155 -0.093473904 -0.28642797 0.56342554 -0.036591165 -0.0024711392 0.55896765 0.19334555
0.15363087 0.22000585 0.2992164 0.04340231 -0.0028345997 0.8078592 0.1047062 0.091068976

predictor.action_to_map.0.bias f4 [64]
00000000: 984c 51be 0add 95be 3450 5cbe 2a73 003e
00000010: fdbb 2f3c 2835 3c3e f899 973d dfa1 60be
00000020: aa1d b93e f32d 3abe 49a8 64be 97e9 6d3d
00000030: 23a5 1c3e 1626 8fbe 6517 da3d 2636 813d
00000040: be23 77be dbde f73d 96d2 3ebe 8db0 67be
00000050: 66e5 fa3c 58f2 963c f936 643e da74 823e
00000060: 5521 0b3d e2b1 0a3e f7b0 72be b18f a23e
00000070: 68c9 c5bc 57a9 b43d 373b 9bbe 72be 74be
00000080: 8782 96be 7551 66be 4f4c 87be a972 453e
00000090: 83fc 7bbe d450 42be c7ad 31bd 4a4d 003e
000000a0: c5f6 413e 09d2 44bd 69c8 ad3e bd27 a93c
000000b0: 0121 43be 1586 813e d3de 47be 8d3d f73d
000000c0: 92e0 e5bb 02d6 53be 4556 71be 960d 8e3e
000000d0: 8543 3fbe de3c 16be cf63 c1be 5960 d63d
000000e0: 5e6c 443e 08d2 76be cd9d d9bd 072f 91be
000000f0: 6481 023e ecb1 dcbc 2c63 8bbe bf48 753e
-0.20439374 -0.29270202 -0.2151497 0.12543932 0.010725972 0.18379653 0.07402414 -0.21936749
0.36155444 -0.1818159 -0.2232982 0.058084097 0.1529737 -0.27958745 0.106489934 0.06309156
-0.24134728 0.12103053 -0.1863502 -0.22625943 0.030626964 0.018426105 0.22286595 0.25479776
0.033967335 0.1354442 -0.23700319 0.31750253 -0.02414389 0.088213615 -0.30318615 -0.23900774
-0.2939646 -0.22492011 -0.26425406 0.1928202 -0.24608044 -0.18976146 -0.043378618 0.12529483
0.18941791 -0.048051868 0.33941963 0.020648832 -0.19055559 0.2529761 -0.19518594 0.12072287
-0.0070152963 -0.20687106 -0.23568065 0.2774474 -0.186781 -0.14671656 -0.3777146 0.104675956
0.19181964 -0.24103558 -0.10625801 -0.28356192 0.12744671 -0.026940309 -0.272241 0.23953532

predictor.action_to_map.2.weight f4 [64, 64]
00000000: 495b 04bd 006f 03bd 84da 20bd e499 113d
00000010: 8974 4c3c ecd3 f43c 3cc4 0a3d e210 5cbc
00000020: c60b 7bbc 3f59 17bc 6930 2b3c 8c6c d8bc
00000030: e296 65bc 711f b0bc a38a c33c 3738 b0bc
00000040: c83a 8bbc dfd3 88bb 691f 983a 872f d0bc
00000050: 9a6d c93c a0da 23bb 1210 ee3b 9527 643c
00000060: 48c5 a53c cc90 0cbd b762 c9bc 8b1d 05bd
00000070: 15a6 2b3c d0fd e33a 1420 60bc 0820 92bc
00000080: 04f7 cdbc 44b8 bfbc 0ee9 153d 279f aa3a
00000090: dfd0 04bd e64d b6bc b0e5 44ba 6c44 1d3d
000000a0: 9527 6abc 666c 203d 9655 84bc 554a edbb
000000b0: 4555 66bc 1f54 12bd f4fa e93c 59ff 5f3b
000000c0: c738 86bc af1e 06bc df53 f8bc 8ee2 b93c
000000d0: 2a14 84bc e88f fabc bc3f 5a3c 91bd 8ebc
000000e0: 9906 04bd 1baa 9a3c aa31 a43c 6327 8f3b
000000f0: a428 1bbc 240b 4a3c a062 3b3b c327 06bd
00000100: 2b62 b9bd 8fef 883e a400 7bbd 4540 1bbd
00000110: fe41 2b3c 2d1d 24bd 28df 1f3e ab43 863c
00000120: 622a d23c ce3c 7b3c 6a40 b63c 9121 003e
00000130: 251b 43bd 0e6f 21bd c8b9 de3c a7bd 45bd
00000140: f36d d0bd 73c9 a33e bd15 d13d 2f07 193d
00000150: fe04 85bd ea43 19bd b580 30bb b566 203d
00000160: 1a6c 40bd 16c0 a5bd 7a28 3d3e d7ea 313d
00000170: 0285 9b3e a6da 6b3e 1af9 1a3b 6e09 453e
00000180: ae13 be3d a0dd fb3d ca8a 86bd b0c2 783d
00000190: 0155 1b3d 7e1d cebb d672 10bd 7b2f a2bc
000001a0: 5e34 a4bd 5a8b d4bc e31d b43d 36ef 9a3e
000001b0: ac3a 3bbd 0883 3b3d 7ca8 803d d571 e0bd
000001c0: 0396 9c3d 2d1d 1f3c 9a94 cb3d 762b 54bd
000001d0: b21d b2bd 6f5d 913c 3ebb 6a3e e45e 5bbd
000001e0: afaf 05bb fe3a 983b 6503 0e3c b4a8 c4bc
000001f0: d7e1 c93d 43f3 c7bc 20ac 033e 5870 973d
00000200: 993b 1f3d 9e96 8bbd 3d68 b9bc e6c9 093d
00000210: 920c b2bc b622 063e 2e90 a6bd e4c8 893c
00000220: b07e 523c 5e52 ccbc e11b 413b e637 8dbd
00000230: 44c1 db3d 1278 46bd 1bf9 1fbd 16db fd3c
00000240: 6a16 0a3d 7d11 1bbe c3a3 84bc 8887 08bd
00000250: 7063 a53d 37fa 083e e893 853d 68a0 043d
00000260: 8511 683d 4cfe a63d 91f4 9abd 248a 33bc
00000270: 5c57 2abe 2e37 a3bd a240 16bd 9009 3fbd
00000280: 7e4b 55bd 3663 253d 716c a43c 4ba4 afbd
00000290: 858a da3c 260c 9fbd 2248 2a3d 00e6 053e
000002a0: 9472 c3bc 0f0f ebbc 728e c2bb 14db 09be
000002b0: c9ee 5b3d 647f 353c 11db bf3d c04c 273b
000002c0: b59f da3d 471e 31bd e428 5cbd 6d31 df3d
000002d0: c80e 013e ca97 c5bc 7843 adbd aa71 c73d
000002e0: e96f 2f3d b5b0 7bbb 9384 473c dd12 32bc
000002f0: 8cee 8abd 7066 e0bb a62d 3d3c cb18 753c
00000300: 5b4d 0ebb ce71 37bd 80a1 0d3d 51f7 4cbb
00000310: 6bf2 833d aa46 a0bc a5f2 9c3d 2412 793c
00000320: 79cd fe3c dfd7 fc3b 0874 1dbd f427 043c
00000330: 22c2 03be e855 0bbc 8d1a 2e3d 11c4 ee3c
00000340: 66c0 6ebd 7d3c 823d 1798 09bd a030 18bd
00000350: 45b9 cbbc 3dad 06be 6b3f abbc 9bc2 bf3b
00000360: 9b5c 3fbc 38c4 d8bb 43c1 02bc c1d9 bb3d
00000370: c678 3c3c c2df 54bc 044d a8bb edd3 7bbd
00000380: 90a8 09bd 065b 66bd 82a9 2fbd a075 ba3d
00000390: 4689 1ebb af0c 023d f8a6 41bd 486d e8bd
000003a0: b3af b63d f8aa dcbc dfb2 d43d 4ba5 4e3c
000003b0: e832 22bd af18 673d 15bc 86bd b239 be3c
000003c0: 6331 febd 3e70 86bd 7ad4 31bd 06a4 8a3c
000003d0: 6c74 b9bd aafb 6a3c fc66 ffbc 03d4 e0bc
000003e0: 6ec3 943c 6edb a63c 42ed f53b f741 eabc
000003f0: 536d 19ba cbe6 58bc c56e e5bc a126 d13c
-0.03231362 -0.03208828 -0.039270893 0.035547152 0.012478956 0.029886208 0.03387855 -0.01343176
-0.015322631 -0.0092375865 0.010448554 -0.026418947 -0.014013024 -0.021499367 0.023869818 -0.02151118
-0.016995803 -0.0041756476 0.0011606041 -0.025413288 0.024588395 -0.0025002137 0.0072650993 0.013925453
0.020235673 -0.034317777 -0.024583204 -0.032498877 0.010476609 0.0017394368 -0.013679523 -0.01783754
-0.0251422 -0.023403294 0.03659921 0.0013017402 -0.032425757 -0.022253942 -0.0007511033 0.03839533
-0.014291664 0.039165877 -0.016154092 -0.007241527 -0.014058416 -0.035724755 0.028562047 0.0034179299
-0.016384495 -0.0081860265 -0.03031343 0.022691038 -0.016122896 -0.030586198 0.0133208595 -0.017424377
-0.032232855 0.01887994 0.020043213 0.004368709 -0.009470139 0.012331758 0.002859272 -0.032752763
-0.09051927 0.2674527 -0.061279908 -0.03790309 0.0104527455 -0.040066887 0.15612471 0.016389688
0.025654975 0.015334321 0.022247512 0.12512805 -0.04763331 -0.03941255 0.027188197 -0.04827657
-0.10177221 0.3198963 0.102092244 0.037360366 -0.06495093 -0.037418284 -0.0026932184 0.03916045
-0.046978094 -0.08093278 0.18472472 0.04343685 0.30374914 0.23032627 0.0023647011 0.19241878
0.09281097 0.12298131 -0.06569441 0.060732543 0.037922863 -0.006290137 -0.035265766 -0.019798031
-0.08017801 -0.025945354 0.08794763 0.30260628 -0.04571025 0.045779258 0.06282136 -0.10959212
0.076458 0.009711546 0.09940453 -0.05179926 -0.0869707 0.017744748 0.2292299 -0.05355729
-0.0020398905 0.0046457043 0.0086678015 -0.024006225 0.09857529 -0.024407988 0.12858629 0.07394475
0.038875196 -0.06815837 -0.022632712 0.03363981 -0.02173451 0.13099179 -0.08132969 0.016819425
0.0128475875 -0.02494162 0.002946608 -0.068954274 0.10730222 -0.04845435 -0.039055925 0.030988257
0.033712782 -0.1514339 -0.016191369 -0.033332378 0.08075607 0.133767 0.065223515 0.032379538
0.056657333 0.08153972 -0.075661786 -0.010958228 -0.16634887 -0.07969509 -0.036682732 -0.04663998
-0.052073948 0.040377818 0.02007124 -0.08576258 0.02667738 -0.07765989 0.041572697 0.1307602
-0.023858346 -0.028693704 -0.005937391 -0.13462478 0.05369452 0.011077736 0.093679555 0.0025527924
0.10674993 -0.043241765 -0.053749934 0.10898099 0.12603295 -0.02412023 -0.08460134 0.097384766
0.042831335 -0.0038404886 0.012177604 -0.010868755 -0.067837805 -0.006848149 0.011546528 0.014959524
-0.0021713588 -0.044786267 0.034577847 -0.0031275342 0.06442722 -0.019564945 0.07663468 0.015202079
0.031103836 0.0077161635 -0.038440734 0.008066166 -0.12867025 -0.008504368 0.04250579 0.029146226
-0.058288954 0.063591935 -0.03359231 -0.037155747 -0.024868617 -0.13152023 -0.020904263 0.005852056
-0.011679794 -0.006615188 -0.0079806475 0.09172393 0.011503404 -0.012992801 -0.005136134 -0.061481405
-0.03360802 -0.05623915 -0.042886265 0.091044664 -0.0024190708 0.031750377 -0.047278374 -0.11348969
0.08920231 -0.026936993 0.103856795 0.012612651 -0.03959933 0.056420024 -0.065788426 0.02322087
-0.124117635 -0.06564377 -0.043415524 0.016923916 -0.09055409 0.014342228 -0.031177036 -0.027444845
0.018159594 0.020368304 0.00750509 -0.028595908 -0.00058527774 -0.013238619 -0.02800692 0.025531115

predictor.action_to_map.2.bias f4 [64]
00000000: b72c 7f3b 625a d4ba f820 343e 201f ed3d
00000010: 44f1 ffbc 745d 5d3e 5859 f6be ddfe 713d
00000020: 4d68 e23e de02 c5bb 26e5 debe 326c c4bd
00000030: 8de1 92b8 011a 953d c244 2dbe a184 163c
00000040: 45f8 73bd a747 273c c527 8b3e 3a76 9ebd
00000050: ef8a 8cbd 68f8 1dbd 44f9 5bbd d589 acbe
00000060: fa64 13bf 6023 8ebd 4ee2 f0bd c47c 233f
00000070: 8587 693c 60f2 953d 8470 833e ca7e 08bd
00000080: 4ff0 203c 96ce 4c3d 95cd 37bd 19b2 133e
00000090: 0ab2 813c 5269 0e3f d5fe 463e 9f8f f9bd
000000a0: 84d8 8b3e 78b0 ccbc 1dc4 15be ec18 c23d
000000b0: 6216 243c add2 a6bd c8d7 5f3d 1d1e dcbc
000000c0: 51cf eabd 8831 43bc e531 9a3c c4fb 80be
000000d0: 9a2e 283f 1b07 4bbc e577 9bbc 3f49 523f
000000e0: d5b4 c4bc 4ebd 903d 356b b2bc dd20 603c
000000f0: 82c7 4b3c 391c d33e 9f34 523e ed4f ad3c
0.0038936564 -0.0016201253 0.17590702 0.11578202 -0.031242974 0.21617681 -0.4811504 0.059080947
0.442202 -0.0060123047 -0.435342 -0.09590949 -7.0038346e-05 0.072803505 -0.1692076 0.009186895
-0.05956294 0.010209954 0.2717878 -0.07737394 -0.06862437 -0.038566977 -0.053704515 -0.33698907
-0.57575953 -0.06940341 -0.11761914 0.6386225 0.014253502 0.0732162 0.2567178 -0.03332404
0.009822919 0.050001703 -0.044873793 0.14423408 0.015831966 0.55629456 0.19433148 -0.12185597
0.27313626 -0.02498649 -0.14625593 0.0947741 0.010015102 -0.08145652 0.054649144 -0.026869828
-0.11465324 -0.011913665 0.01882262 -0.25192082 0.6569611 -0.012391831 -0.018978069 0.82143015
-0.024012009 0.07067357 -0.021779636 0.01367971 0.012437703 0.4123247 0.20527886 0.021156276

predictor.conv_layers.0.weight f4 [64, 96, 3, 3]
00000000: 4e1b 72bc 8bea 5f3d 31d2 033e cc1b 403e
00000010: afcb d63a 4b69 9dbd 36e1 103e c6f1 3b3d
00000020: a7ea 6fbd 4757 883d c56a ff3c f643 a7bb
00000030: 764b 2f3e 7b13 b33e 3d49 d13d f9e5 d03d
00000040: 078f 1c3d 5563 093c 6b19 7f3d f44c 953d
00000050: 89a7 9c3c 376f 40bd 1feb 31bd fdb5 e63c
00000060: 4075 86bc 7b26 acbc b7bc 293d e3d3 6d3c
00000070: 15f0 b93d f99d fd3b 5a14 a83d 0bfb 173e
00000080: fd5e 8f3d d19d 303d 888f a83d 8345 86bc
00000090: 3a60 633c 0ca9 b8bd 9fad 713d b1c0 4d3e
000000a0: 1629 a43d fdce 33bc aff2 983d bf6f 993d
000000b0: 13e8 66bc f436 3e3c 14ba 0b3d 646e bdbb
000000c0: 5438 debd 8e6f b0bd 3f59 06be 685f 67bc
000000d0: a93d 60bd c375 0ebe ce87 12bd c062 72ba
000000e0: f9dd 2b3d e8bf a73d 15d9 9cbd 96d0 93bc
000000f0: 06dd 453d 9984 353e d1c1 cebd 0153 10bd
00000100: 1fb3 ec3d 412f f13c 3b85 4d3c 2684 f3bd
00000110: 55d6 7e3d df31 de3c 64a7 a5bd 226c 03be
00000120: cc9a 6abc 3e57 70bd 629a 90bd 4902 51bc
00000130: 3f72 c23d 0e68 babc b59a 80bc a2ab 173a
00000140: 34f6 243d e6c7 bd3c c6c8 acbd 5cde 043e
00000150: 69cc 423c 0500 043e 6848 d0bd 6736 edbc
00000160: 0a3b b93d bf39 3f3d 0ec3 42bd fc73 9ebd
00000170: 540f 153d 3c8d debd 2155 0bbe 25a3 ab3d
00000180: dd14 8bbd 54f8 04be 4359 e8bc d592 cfbd
00000190: f07f 943d dd24 ac3c 169b 0d3d e321 b3bd
000001a0: 696d d03d eb2f 82bc df24 42ba 5b0b 053e
000001b0: 9105 ec3c b81a 1ebc 183c d33c f6e1 db3a
000001c0: 0b44 f63d c259 e0bd 4b0e f73c 870c 50bd
000001d0: 7381 483b 9302 ff3c 90a0 d93d fbe3 8cbd
000001e0: 279f fd3d eb2f 88bd b966 68bc 7417 e03d
000001f0: 8dc8 8f3d 98c3 eebb e6ee 4ebc 18c4 38bd
00000200: c75e 93bd 5482 01be ed49 bcbc ca52 b3bc
00000210: 7c80 e2bc 81e3 963c 98eb d73d 4985 3ebb
00000220: d562 6bbd f84b cabd b66a 86bd 0607 febd
00000230: fe98 c23d 87ab f5bd eee9 313d 5651 18bd
00000240: 8607 6bbd f807 84bd 9271 9c3c 10ae aebd
00000250: 7c91 32bd 69cc ed3c 710c 543d 5631 70bd
00000260: ad77 003d fff1 81bc 16f8 af3d b73f 2a3c
00000270: b44a b43d 4ced 27be 8f5d 353d 1fdc b0bc
00000280: 2f85 443d ba6f a53d ef03 08bd b94a a93c
00000290: 158f ac3d 7ba0 bbbd 037d 023e 248f 09be
000002a0: a3b3 a23d 79d9 1d3d 4499 2d3d bf81 3c3c
000002b0: 335d 26bd 5b34 ff3b 3f01 d13d 343e 4c3e
000002c0: f373 303d 75e2 ab3d faab 223e 7411 1bbd
000002d0: 8fa5 7fbd d4e4 cd3d 9cb0 613d 723e 843d
000002e0: d00e a13d e979 c83c 3c2c 953d 5536 92bd
000002f0: 7ca8 3a3d 5ecb 043e 3afb eebd 8dce 87bd
00000300: 88df 353e c8f9 ae3d 495d 92bd 04de 21bc
00000310: 00eb df3d 82df 21bd d780 8a3d 4ad6 e43b
00000320: 42e5 5d3d 6f97 1ebc 92e4 033e 13df 39bd
00000330: 0f7d 8c3d 0d67 383d 3428 38bc ce46 993d
00000340: 1748 44bd 9d55 393b cfba 2fbd 5050 fa3d
00000350: bbda 023c ec95 ea3c ebfd 333d dc21 3abd
00000360: 96be 033e 4c1e 66bb b6d1 bf3d 18fe 633d
00000370: a012 213e 00d5 fcbd 67af 103e 720f 803d
00000380: 0b27 4f3c ff94 dbba 0291 5bbd 0f06 eebd
00000390: 1e8c 033c 2b72 84be c106 9dbd 8983 75bd
000003a0: d41f 22be 0e9f 95bd b264 193d a289 a1bd
000003b0: cc63 683d 6d05 00be 6a77 9cbd 299d d0bc
000003c0: 6612 67bd fb55 b13d 9bcf 94bd 49d7 17bb
000003d0: f5ff 2dbc d02c 14bd b1dd 553b 1246 f43d
000003e0: a4c2 c23d b522 573d ec62 44ba dc70 4f3c
000003f0: 1f4a eaba b14a 4f3d fbad 8e3c 2481 2d3d
-0.014777018 0.054667037 0.1287315 0.18760604 0.0016387607 -0.07686099 0.14148411 0.04588487
-0.05857339 0.06657272 0.031178841 -0.005104537 0.1711863 0.349758 0.10219047 0.10200114
0.03822234 0.008385499 0.0622801 0.07290068 0.019122856 -0.046981063 -0.04343712 0.02816295
-0.016413331 -0.021014443 0.041439738 0.01451585 0.09078995 0.007739779 0.08207007 0.14841859
0.070005395 0.043119255 0.082305014 -0.016390568 0.013877923 -0.09016618 0.05900347 0.20093037
0.08015649 -0.010974643 0.07468163 0.07492017 -0.014093417 0.0116097815 0.034113005 -0.005780982
-0.108505875 -0.08615027 -0.13119982 -0.014121868 -0.054746304 -0.1391211 -0.035774045 -0.0009246282
0.041959736 0.081909 -0.076585926 -0.018043797 0.048306488 0.17726363 -0.10095561 -0.03523541
0.11557602 0.029441478 0.012543972 -0.1189044 0.06221612 0.02712339 -0.08088568 -0.12834218
-0.014319133 -0.05867695 -0.07060696 -0.0127568925 0.09494447 -0.022754695 -0.01569877 0.0005785768
0.04027386 0.023166608 -0.08436732 0.12975448 0.0118895555 0.12890632 -0.101700604 -0.028956605
0.09044464 0.04668593 -0.0475493 -0.07736966 0.03639157 -0.10866782 -0.13606693 0.08380727
-0.06791089 -0.12985355 -0.028362876 -0.10135428 0.07250965 0.021013672 0.03457173 -0.08746698
0.10177118 -0.01589199 -0.0007406007 0.12992613 0.028811248 -0.009649925 0.02578549 0.0016775716
0.12024697 -0.1095462 0.030158183 -0.050793197 0.0030594736 0.031129157 0.10626328 -0.06879421
0.123838715 -0.066497646 -0.014184647 0.10941973 0.07020674 -0.0072865 -0.0126302 -0.045108885
-0.07195812 -0.12647372 -0.02298447 -0.021890063 -0.027649157 0.01841903 0.10542983 -0.0029071143
-0.0574673 -0.09877771 -0.06563322 -0.12403683 0.09501837 -0.11995607 0.043435983 -0.037186943
-0.05738022 -0.064468324 0.019097123 -0.085292935 -0.043595776 0.029028134 0.051769678 -0.0586408
0.03136413 -0.015862463 0.085922405 0.010391167 0.08803311 -0.16399115 0.044278678 -0.021589337
0.047978576 0.08077951 -0.033206876 0.020665513 0.08425728 -0.091614686 0.12743 -0.1343351
0.07944419 0.038537476 0.042382494 0.011505543 -0.040616225 0.0077882237 0.10205316 0.19945604
0.043079328 0.083928026 0.15885916 -0.03785844 -0.06241375 0.10053411 0.05510007 0.06457223
0.078641534 0.024472194 0.07283828 -0.07139269 0.045570835 0.12968203 -0.116690114 -0.06631193
0.17761052 0.08543736 -0.07146699 -0.009879593 0.109334946 -0.039519794 0.067628555 0.006983553
0.054173715 -0.009679659 0.12880161 -0.045378756 0.068597905 0.045020152 -0.011240054 0.07484208
-0.047920313 0.002827979 -0.042902764 0.1222235 0.00798672 0.028635941 0.043943327 -0.045442447
0.12865672 -0.0035113273 0.09366171 0.055662245 0.15729761 -0.12345314 0.1412941 0.06252946
0.012643586 -0.0016752778 -0.053605087 -0.11622249 0.008029012 -0.25868353 -0.07667304 -0.059939895
-0.15832454 -0.07305728 0.037449546 -0.078875795 0.0567358 -0.1250207 -0.07639964 -0.025465565
-0.05641403 0.086589776 -0.0726616 -0.0023169091 -0.010620107 -0.03617555 0.003263336 0.11927427
0.09509781 0.052523334 -0.0007491547 0.012661185 -0.0017874873 0.05060834 0.017416945 0.042359486
